signlanguage.onnx (onnx, 148797 bytes, 8 tensors)

sequential/dense_1/MatMul/ReadVariableOp:0 f4 [128, 26]
000000 1c bc 1e 3e 90 ea 46 3f 0b bc 2f bf cb 76 8b bd
       0.15501446 0.77701664 -0.68646306 -0.06809767
000010 32 8c 4f 3e 8f 70 7f be ef 22 66 3e d2 79 b3 3e
       0.20268324 -0.24945281 0.22474264 0.3505388
000020 9c 15 27 be 0e 86 13 3d 29 95 22 3e c9 70 1f bf
       -0.16316837 0.036016516 0.15877213 -0.6228147
000030 1c 58 b1 3e 21 e7 65 3e 42 c0 43 be ce 08 0a 3f
       0.34637535 0.2245145 -0.1911631 0.53919685
000040 01 31 81 3d bd 65 b5 bd db 4b 11 3f c1 d0 6b be
       0.06308175 -0.08857296 0.5675637 -0.23028852
000050 bd 1d 1e 3e 00 10 ac be ff f8 1c be a5 bc fd be
       0.15441032 -0.33605957 -0.1532936 -0.49557987
000060 d3 2e 53 bf f4 f4 f7 bd ac df 32 3e 70 7c 9a be
       -0.82493323 -0.12107268 0.17468137 -0.30173063
000070 9a bb 84 be 32 2f 89 3f 05 e0 90 bd ff c6 c0 be
       -0.2592438 1.0717528 -0.07073978 -0.37651822
000080 54 15 90 be f0 8b 6c be 09 03 9f 3e 80 51 d4 3d
       -0.28141272 -0.23100257 0.31057003 0.103671074
000090 0e bb fb 3d b7 db b6 3d 19 95 50 3d 99 90 18 3e
       0.12291537 0.08928626 0.05092344 0.1489891
0000a0 9f 79 f3 be f3 56 e7 be a1 a2 9c bd 8a e7 b5 3e
       -0.47553727 -0.45183524 -0.076482065 0.35528213
0000b0 26 00 85 3e 96 86 5d bf 49 87 1b be e6 f4 93 be
       0.25976676 -0.86533487 -0.15188326 -0.2889778
0000c0 eb fc 86 bf fd f5 1a bf b7 96 e1 3e 05 45 ff 3c
       -1.0545934 -0.605316 0.440603 0.03116084
0000d0 61 3c dd 3d f0 b0 a7 3e 0e cb 09 3e 80 84 74 3e
       0.10802532 0.3275218 0.13456365 0.2387867
0000e0 00 3e f9 3d c3 20 c5 3e be 3b 39 bf f7 35 91 3e
       0.12170029 0.38501558 -0.72356784 0.28361484
0000f0 09 72 9f 3e 77 ec f7 bd 85 ba 2f 3e c5 05 95 be
       0.3114169 -0.12105649 0.17160995 -0.29105964
000100 ea a2 ea 3b 26 74 2f be df c6 23 3d b3 eb bf bc
       0.007160534 -0.17134151 0.03998458 -0.02342782
000110 2d ad ed be b5 39 f8 bd a1 80 a4 bd 22 58 ca be
       -0.46421185 -0.12120382 -0.080323465 -0.39520365
000120 7f 25 b3 bb b5 f5 77 3d cc 73 de 3d 66 3f 85 bf
       -0.0054671164 0.06053706 0.1086193 -1.0409973
000130 c1 74 b6 3e 13 19 98 be 7a a7 ff bd 6c f0 66 3e
       0.3563595 -0.2970663 -0.124831155 0.22552651
000140 dd 44 90 3e 48 0e 81 be 10 14 8c 3e d7 d8 fd bd
       0.2817754 -0.25206208 0.27359056 -0.123948745
000150 be 97 09 bf f0 eb a0 be a1 d5 fe be ea b8 20 bf
       -0.53747165 -0.31430006 -0.4977236 -0.62782156
000160 7b 9a be bd 2c 34 08 be f6 60 98 3d d3 2e 30 3d
       -0.093068086 -0.13301152 0.07440369 0.043013405
000170 1b bf b2 3e 5d 75 92 3d 01 fe da be 12 bc 63 be
       0.34911427 0.071512915 -0.42771915 -0.22239712
000180 7a f3 b6 bc 30 aa af be 6f ff 0b 3e 76 31 d5 be
       -0.022332896 -0.3430953 0.13671659 -0.41639298
000190 84 12 a6 be 2a 47 f8 be 3d dc 01 be 07 04 bc be
       -0.32436 -0.48491794 -0.1268167 -0.36721823
0001a0 fc 31 26 3e 5e d2 c0 3e e3 ef b6 be 65 bf 23 bf
       0.16230005 0.37660497 -0.35729894 -0.6396392
0001b0 e2 04 ad be cc 32 e9 3e e6 a6 ba 3e 4a bf 08 be
       -0.33792788 0.45546567 0.36455458 -0.13354221
0001c0 96 ac 5e 3e f7 5b 09 be 64 0c 06 be a8 60 4a be
       0.21745524 -0.13413988 -0.13090664 -0.19763434
0001d0 26 1a 47 bd 0a ea cd bc 0c b1 0c bf 2a 84 b8 be
       -0.04860892 -0.025136013 -0.5495765 -0.36038333
0001e0 cc d5 ef bd 1d a4 07 3d d3 9a 9d be 0e 17 67 3f
       -0.117107004 0.033115495 -0.30782184 0.90269554
0001f0 0c 9e 02 3d 18 35 f4 3d 91 a6 66 3e 94 e5 8f 3e
       0.031889006 0.11924189 0.22524478 0.28104842
000200 87 90 4f 3e 33 57 4e be 1e ec 12 bd 24 2a 5f bf
       0.20269977 -0.20150451 -0.03586971 -0.87173676
000210 76 80 f6 be c3 f2 d0 be 06 6a 3b be 7e 45 43 bf
       -0.48144883 -0.40810212 -0.18302163 -0.7627791
000220 e5 a5 d4 3d e8 3c e9 3e d2 5c a2 3d cd 7a 8e bd
       0.10383204 0.4555428 0.0792786 -0.06957016
000230 08 38 cc be 36 95 00 3e 73 39 a5 3e 59 89 91 3e
       -0.39886498 0.1255692 0.32270393 0.284251
000240 69 3b 39 be b8 bf a1 be 37 48 1e be fe 6e 89 3e
       -0.1808907 -0.31591582 -0.15457235 0.26842493
000250 50 13 8e 3e 9c 39 81 3e b8 37 8c 3d 6f 14 89 3e
       0.2774911 0.25239265 0.06846565 0.26773402
000260 ab c4 63 be 45 9d 4e be 9b df 61 3e c7 fe 2a be
       -0.22242992 -0.20177181 0.22057955 -0.16698752
000270 5b 18 48 3c fd 37 bd be 5e ce 14 3f bf bc 1f 3d
       0.012212838 -0.36956778 0.5812739 0.03899836
000280 27 cb 40 bd a3 e5 f0 3e 14 c2 dc be 10 bd 1f bf
       -0.04706874 0.470502 -0.4311682 -0.6239786
000290 7a 05 bb 3e 4b 1b ef bd 67 24 a3 be 44 72 e3 bc
       0.36527616 -0.116751276 -0.3186371 -0.027764447
0002a0 bc 7e 4e be cf 59 59 3c c2 89 11 3e 21 fc ce bd
       -0.20165533 0.013266041 0.14212707 -0.101066835
0002b0 42 e8 ee be 9d 99 7a be fc cb d3 be d9 13 8e 3d
       -0.46661574 -0.24472661 -0.41366565 0.069373794
0002c0 ea 75 17 bf e5 4a 16 be 42 8a 62 be 7b 73 e0 bd
       -0.591643 -0.14677007 -0.22123054 -0.10959526
0002d0 25 c6 34 3f 83 a5 47 be ae 1f 0d 3e d6 02 b5 be
       0.70614845 -0.19496731 0.13781616 -0.35353726
0002e0 4e b7 83 bc 59 70 bc 3d 6d b3 8f be cb d6 96 3d
       -0.016078617 0.09201116 -0.28066579 0.07365187
0002f0 a5 dd 79 3e 04 49 3a 3e ef e4 86 3e 11 42 a3 3d
       0.24400957 0.18191916 0.26346537 0.079715855
000300 0d 17 7e be 8a 33 5b 3e 7a 41 b9 3d ef 9e 15 3e
       -0.2481348 0.2140638 0.09045692 0.1461141
000310 2f 23 26 3e b9 ff f5 be 8f 6f fc bd ed 12 cf be
       0.16224359 -0.48046663 -0.123259656 -0.40444127
000320 d3 7d fd bc 3b 3a 86 3e 7b cd 1e bf 33 d0 e8 bd
       -0.030943787 0.262163 -0.6203229 -0.11367836
000330 23 e0 91 be a8 6c 25 3f 80 64 e4 bc 22 cc 41 3c
       -0.28491315 0.6461892 -0.027879953 0.011828454
000340 b4 2f 91 be ed bc 00 3f 2f a2 5e be 7b ed 1b 3e
       -0.28356707 0.5028828 -0.21741556 0.1522731
000350 cd 69 83 b9 8c ff 8c bb 01 8d 0b bf b8 94 6e be
       -0.00025065095 -0.0043029245 -0.5451203 -0.23298919
000360 bc 10 56 bd 24 c4 7a bf 1f 95 19 3e 78 0e e7 3c
       -0.052262053 -0.97955537 0.14998291 0.028205141
000370 f9 79 02 3c 0b d6 8b be 8f 87 8d be 95 e6 28 3f
       0.007963651 -0.2731174 -0.27642485 0.6597684
000380 5b 42 b3 3c 1d e3 16 3d 15 e5 c5 bd 6a 5d e6 be
       0.021882227 0.036837686 -0.096628346 -0.44993144
000390 c6 c8 b0 3e 68 8a 2c 3e f9 eb d6 3e a5 dd 4a 3d
       0.34528178 0.16849673 0.41976908 0.049527783
0003a0 a9 9e 88 be bb 3e 9c bf 64 fc b2 bc 8e 0a eb 3b
       -0.26683548 -1.2206644 -0.021848865 0.007172889
0003b0 d1 c9 5d 3e 99 43 a0 be aa f3 9f 3d 55 dc 4b 3e
       0.21659018 -0.31301573 0.07810147 0.19908269
0003c0 6e cd 5a 3e 2d ae f1 3e 39 24 a0 3e 7b e4 4b bf
       0.21367428 0.47203198 0.31277636 -0.7964551
0003d0 78 d9 ee 3e 23 93 98 be 37 a9 a2 be 50 e3 42 3d
       0.4665029 -0.29799756 -0.31769726 0.047580063
0003e0 51 08 ab bd 63 74 c3 3e 05 f2 e2 3d 7c bd 64 be
       -0.083511956 0.38174734 0.11081318 -0.22337908
0003f0 03 26 11 bf f0 86 fa bd 85 76 ac be c5 46 51 bf
       -0.56698626 -0.122327685 -0.33684173 -0.8174861

sequential/dense_1/BiasAdd/ReadVariableOp:0 f4 [26]
000000 41 b3 47 3e ab 6f 94 3e f3 9e 08 bf 43 35 69 3e
       0.19501974 0.28991446 -0.5336754 0.22774224
000010 65 a7 64 3e 65 a3 30 be 7b 18 cb bd bf 5f ad 3d
       0.22329481 -0.1724983 -0.09916779 0.08465528
000020 73 63 8b 3e a9 3b b4 bd 3c 13 6b be 9f f1 9c 3d
       0.2722431 -0.08800442 -0.22956556 0.07663273
000030 73 53 fa bd 5e 06 f1 be 82 ea 45 be 1a e6 54 3f
       -0.12222948 -0.4707517 -0.19327739 0.8316361
000040 8c 71 9d be 5b 07 1c be 90 37 26 be 1d c0 08 3e
       -0.30750692 -0.15237181 -0.16232133 0.13354535
000050 fb 83 67 3e 5d e0 aa 3d bb 75 85 3e d0 ff 44 3d
       0.2260894 0.08343575 0.26066384 0.048095524
000060 ff 15 b2 be bc b2 ae bd
       -0.34782407 -0.085301846

sequential/dense/MatMul/ReadVariableOp:0 f4 [250, 128]
000000 f3 97 cb bd 40 45 96 3e 5b 5a ed 3d 50 d9 76 3e
       -0.099410914 0.2934971 0.115894996 0.24106336
000010 e2 3e a7 bd b3 98 46 3e 1e 44 0a 3e e1 3c a1 3d
       -0.08166291 0.19394188 0.13502547 0.0787294
000020 58 7a aa 3e 4c ce 5a be 42 93 39 3e 5e 2d a3 3d
       0.33296466 -0.21367759 0.1812258 0.079676375
000030 cb 17 0b 3d 4b 72 02 be 04 65 b0 bd 5a 01 c3 bc
       0.033958238 -0.12738912 -0.08613017 -0.023804355
000040 bd e0 e4 be dd cd c1 3d 5a 6a e1 bd da b9 9a bd
       -0.44702712 0.094630934 -0.11006613 -0.075549796
000050 40 a4 20 bd a9 29 2e be 49 2b ed 3e c5 ba b4 bf
       -0.03921914 -0.1700808 0.46322086 -1.4119498
000060 b7 82 b0 be b8 07 50 bd 08 5d 84 be ce 14 2f bf
       -0.34474728 -0.05078861 -0.25852227 -0.6839112
000070 ec 16 74 bf 8e c5 f0 bb 64 fc cb bd 5e c9 25 be
       -0.95347476 -0.007347769 -0.09960249 -0.16190097
000080 05 65 b0 be b4 63 e2 3c d9 fa c4 bc d1 93 03 be
       -0.34452072 0.027635433 -0.024045395 -0.12849356
000090 13 db 59 3e ab f6 11 bc e0 9e cf 3e 33 5a bd bd
       0.21274976 -0.008908908 0.405509 -0.0924572
0000a0 28 a6 d3 be d0 c0 cf 3e f7 cf 86 be 97 88 36 bd
       -0.41337705 0.40576792 -0.2633054 -0.044563856
0000b0 72 d6 9f 3e 66 ec bd 3e 60 a4 70 be bd 4b ad 3e
       0.31218296 0.3709442 -0.23500204 0.33846846
0000c0 0e 53 e1 3c 43 1f 27 be 8b 03 2d 3e 69 f9 44 be
       0.027505424 -0.16320519 0.16895883 -0.19235767
0000d0 23 58 84 bf a9 b8 0b be f3 47 d0 be fb 86 65 be
       -1.0339397 -0.13644661 -0.40679893 -0.22414772
0000e0 41 4f c2 3e 76 67 48 bb 6c 46 e4 3e 27 e1 14 bd
       0.3795109 -0.0030579246 0.44584978 -0.036347535
0000f0 25 3a d6 3e 03 86 65 3d 8f 13 8a be 51 2d cd 3d
       0.41841236 0.056036007 -0.26968047 0.10018409
000100 27 97 c4 bf be 6b 24 3e a1 22 ec bd 1b b4 96 bc
       -1.5358628 0.16056725 -0.115300424 -0.018396428
000110 ae b6 4b 3e c3 e6 09 be a8 e2 11 3c 4c 70 e1 be
       0.19893906 -0.13466935 0.008904137 -0.44030988
000120 67 91 10 3e 10 7f a8 3e 50 bb 58 bf 34 34 f0 3d
       0.14117967 0.3290944 -0.84660816 0.11728707
000130 90 e1 d1 bc 03 ae 63 3e e9 b9 8d be c9 1a 78 be
       -0.025620252 0.22234349 -0.276809 -0.24228968
000140 43 65 66 3e 0f eb 19 bf 1c 33 a6 bd 0b 82 ae 3d
       0.22499566 -0.60124296 -0.08115217 0.085208975
000150 00 45 87 bd e7 01 88 3e c6 c3 bf be ef e6 b9 be
       -0.066049576 0.2656395 -0.3745405 -0.36309
000160 bb ac 85 bc 13 46 ce 3e 9e 24 8e be 7a b1 92 be
       -0.016317716 0.40287837 -0.27762312 -0.2865103
000170 92 00 cb 3d 59 2f b7 3e 37 93 b2 be 5d 87 32 bf
       0.09912218 0.3577831 -0.3487794 -0.697378
000180 8e 89 35 3e df a2 3b 3e 55 ec 07 bf 31 3a 0f be
       0.17728254 0.18323849 -0.5309499 -0.13987042
000190 c1 76 33 3e e3 ef 27 3e 8a 7a a9 be cf bb fc be
       0.1752577 0.16400103 -0.33101302 -0.49362037
0001a0 38 12 61 3d 4e 9b 08 3e d5 8c d3 be 42 ca 28 bf
       0.054949015 0.13340494 -0.41318384 -0.6593362
0001b0 c2 b2 19 bf 39 5e 20 3e 1f af a2 3d 46 a5 70 bc
       -0.6003839 0.15660943 0.07943558 -0.014687842
0001c0 a6 36 a0 bd 8b 45 cf be 2c 40 7e bd ec 0e 75 be
       -0.07822923 -0.40482745 -0.062072918 -0.23931473
0001d0 3d 13 b6 3d 3b d2 64 bf ea f8 ab bd 74 ef 6b 3e
       0.08890388 -0.89383286 -0.08397086 0.23040563
0001e0 fb 7d 47 3d c1 61 65 be 65 2b b6 3c e7 bc b0 3d
       0.04870413 -0.22400571 0.022237489 0.0862978
0001f0 e4 25 21 3e 08 17 a5 3e 11 75 91 3e cd 8a f0 3d
       0.1573711 0.32244134 0.28409627 0.11745224
000200 b4 f8 5d 3e 0c c9 10 be 74 00 83 3e 6f 63 d2 3e
       0.21676904 -0.14139193 0.25586283 0.41091487
000210 98 36 04 bf 69 33 1f 3e 5a 60 96 be dd 3d 40 be
       -0.51645803 0.15546955 -0.29370385 -0.18773599
000220 23 ed e1 bd 05 cc 2c bd bd 08 17 bd c5 72 ee bd
       -0.11031558 -0.042186756 -0.036873568 -0.11642984
000230 d1 0e 82 3c cb c4 c0 3d 1e 7f 0b be 38 a4 76 3b
       0.015876206 0.09412535 -0.1362271 0.0037634503
000240 44 fe f2 be 1d 14 05 3d a0 c0 b2 be 2a d0 84 3e
       -0.47459614 0.032489885 -0.34912586 0.25940067
000250 ac d0 e8 3d c9 49 49 be 79 1b c8 3e 8f dc d7 3e
       0.11367926 -0.19657053 0.3908346 0.4216046
000260 d8 46 53 39 ac 47 1a be a6 95 d3 3d 6b 99 4a bf
       0.0002014892 -0.15066403 0.103312775 -0.7914035
000270 44 dc b0 be 65 5d 10 3e 35 ac 1a bf 85 b7 b7 bd
       -0.3454305 0.14098127 -0.6041902 -0.089705504
000280 93 6f 86 bc ee de f9 bc a7 c3 ca bd a3 91 00 3e
       -0.016410625 -0.030501809 -0.09900599 0.12555556
000290 23 87 f7 3c e7 c8 c9 be a3 66 16 3e 28 e2 85 bf
       0.030215805 -0.3941109 0.1468759 -1.0459642
0002a0 e4 76 34 be 25 b1 ae be 19 3c e3 bd 01 2a be 3d
       -0.17623478 -0.34119526 -0.11095447 0.09285355
0002b0 4b b8 58 bc 59 59 8e 3e 40 9a bd 3d 9a c9 fe bc
       -0.013227533 0.27802542 0.092579365 -0.03110199
0002c0 21 46 8d bf 54 85 4e bf d4 c1 64 be e7 94 60 3c
       -1.1037027 -0.8067219 -0.22339565 0.013707376
0002d0 e9 8d 7a bf 6e ec b2 be ba 53 9c 3c 15 ba 6f be
       -0.9787279 -0.34946007 0.019082893 -0.23410828
0002e0 6b f0 1a 3e 03 60 59 3b 28 d6 8a bf 79 b1 93 3d
       0.15130775 0.00331688 -1.0846605 0.072115846
0002f0 02 45 00 bd 09 a4 e3 bd f4 23 bb 3e 33 af a3 3e
       -0.03131581 -0.111152716 0.36550868 0.31969604
000300 9f 22 10 bf a3 27 2b 3c e9 0d 81 be ec ab 33 be
       -0.5630283 0.010446462 -0.25205925 -0.17546052
000310 b6 0c 03 be 5e 10 81 3e be aa 12 bf b6 b0 06 3e
       -0.12797818 0.252078 -0.5729178 0.13153347
000320 c0 31 72 be 90 16 bb bc 0e 1d 82 be 87 f0 bd bd
       -0.2365179 -0.022837907 -0.25412792 -0.092743926
000330 00 30 bb 3d 68 f4 20 be 54 7a 29 be 9b d5 5a bf
       0.09140015 -0.15718234 -0.1655057 -0.85482186
000340 49 7b 7e be 01 1a cc be 34 56 8f be 61 5b 36 3e
       -0.24851717 -0.3986359 -0.27995455 0.17808296
000350 f9 29 fe bd 9d 60 6f be 0c 8f 3c bf 9b f9 6a 3d
       -0.124103494 -0.23376699 -0.7365577 0.05736695
000360 46 b0 03 3e 96 d6 7d bc 8c aa 85 3d 1e cc 9b be
       0.12860212 -0.015493056 0.0652667 -0.30429167
000370 44 32 2b 3e 1e 81 18 3e 7c 86 01 3e 44 fe 99 bd
       0.16718394 0.14893004 0.12648958 -0.075192004
000380 64 38 64 be 6a c7 2a 3d 5a 38 02 bf 1a bf 42 3e
       -0.22287136 0.041694082 -0.50867236 0.19018212
000390 2b b0 25 be 34 1e ff bd f1 c7 bd be ca 69 6a be
       -0.16180484 -0.12456933 -0.37066606 -0.22891918
0003a0 33 cd 4f 3e 02 c7 12 3d f8 f0 f7 3d 84 f8 11 be
       0.20293121 0.03583432 0.12106508 -0.14254957
0003b0 ab 10 cf bd 44 9f 83 be b0 bb 11 3e df 63 08 bf
       -0.10110601 -0.25707448 0.14231753 -0.5327739
0003c0 ab ca 5e 3e 18 11 62 be 0b 59 98 be 08 84 9b bd
       0.21756999 -0.22076833 -0.29755434 -0.07593542
0003d0 c0 9a 26 3e 2d 7a 95 bf d7 bc 75 be 07 30 b0 bf
       0.1626997 -1.167791 -0.23997818 -1.3764657
0003e0 ba e2 de 3c 10 ac 4c 3e 5c 64 aa be 2d a4 a4 be
       0.027207721 0.19987512 -0.33279693 -0.32156506
0003f0 27 a4 5e be 3c 4d 4f bf 88 a8 48 be b8 8e 70 3e
       -0.21742307 -0.80977225 -0.1959554 0.23491943

sequential/dense/BiasAdd/ReadVariableOp:0 f4 [128]
000000 12 29 f8 3e a7 68 9a be a0 b3 eb 3e 15 74 f6 bd
       0.48468834 -0.30157968 0.4603548 -0.1203386
000010 f4 47 82 3f 5d f1 79 3c 8d e4 1b 3e e1 fc 0c be
       1.0178208 0.015255299 0.15223904 -0.1376834
000020 ed aa 57 3f 87 e1 50 bd 87 15 92 3e 24 24 0b bf
       0.8424519 -0.05099633 0.2853205 -0.5435202
000030 b3 15 08 bd 9f 72 11 3f 81 e4 40 3d 74 8d ac 3c
       -0.03322382 0.5681552 0.04709292 0.021063544
000040 6b 64 11 3f 5e 49 69 3f 7d ad 95 be 06 26 c3 be
       0.5679385 0.91127574 -0.29233924 -0.38114947
000050 a9 2c c0 be ea c5 10 be 0b 7a a0 be a8 ab 3e bd
       -0.37534073 -0.14137998 -0.3134311 -0.046550423
000060 ce 5b dd 3e 3b b0 43 3e 17 58 8c 3f 86 ae 1b bd
       0.43234104 0.19110195 1.0964383 -0.038008235
000070 5a 9a 44 bf 6e 37 31 3f 24 7d 0b 3f ab 1d 32 3d
       -0.7679802 0.69225204 0.54487824 0.043485325
000080 ac 8b 9c 3d 64 10 53 3f 16 60 14 3e 67 a0 a8 3e
       0.07643828 0.82446885 0.14489779 0.32934877
000090 c2 54 c1 3d c5 f0 e2 3e 57 4e 38 bf f6 b8 77 3e
       0.094399944 0.44324318 -0.7199454 0.24191651
0000a0 f2 5a 65 be 0d b6 a0 3e d6 e8 15 bf f1 70 7c 3d
       -0.22397974 0.31388894 -0.58558404 0.061631147
0000b0 5e 40 8b 3d a8 09 d0 3d 94 cc 02 3f e8 5f b6 be
       0.067993864 0.10158092 0.5109341 -0.35620046
0000c0 93 4e 59 3d 0e 42 69 3f ce 7a 09 bf 06 de a4 bd
       0.05305345 0.91116416 -0.5370301 -0.0805016
0000d0 6b 4d b1 3e 54 15 e6 3e 80 f7 83 3e 39 ed 2f be
       0.34629378 0.44938147 0.25774765 -0.17180337
0000e0 8f 2d 28 bf 0c c5 74 bd c7 61 d5 3e 7e bb ec 3d
       -0.65694517 -0.05975823 0.4167616 0.11559199
0000f0 01 0e f5 be 23 a2 84 bd e5 6a 52 be 6c eb 49 be
       -0.47862247 -0.064762376 -0.2054859 -0.19718713
000100 f9 00 32 be 12 7c 3c 3e 53 e2 c5 3b ab 1b 7a 3e
       -0.17383184 0.18406704 0.006038943 0.24424617
000110 78 78 25 3f e1 f6 c5 3b d6 08 01 be d8 b1 73 3f
       0.64636946 0.006041393 -0.12601027 0.95193243
000120 b2 49 c7 3e 7b 73 3a 3f 73 95 2e 3f b4 83 0e 3f
       0.38923413 0.7283246 0.6819679 0.55669713
000130 a0 1e a3 bd d0 5c 8d be f6 49 2b 3e 6c dd 93 3e
       -0.07964826 -0.27609873 0.16727433 0.2887987
000140 36 82 ff 3e f9 86 4d 3e ea d1 4a bd 3b dd c4 3d
       0.4990403 0.20071019 -0.049516596 0.09612509
000150 68 0a c4 3e 39 6b c7 be 27 82 62 bd 44 27 b8 bd
       0.3828919 -0.38948992 -0.055299904 -0.08991864
000160 d1 26 4b 3e 95 ab a2 3e a7 01 1c bf b5 4d 8d 3b
       0.19839026 0.31771532 -0.6094002 0.004312242
000170 82 0f 2f 3e 64 73 a9 bd 87 c7 ef 3e 9b 11 04 bd
       0.1709576 -0.08273962 0.46831915 -0.032243352
000180 75 cc 48 3b ae eb 0e bf 0f 51 85 3d 37 52 37 3f
       0.0030639444 -0.5582837 0.06509601 0.71609825
000190 6f 44 d0 3e 55 1a 06 bd 92 23 3d 3d 2b f6 ef bd
       0.4067721 -0.032739956 0.0461765 -0.11716875
0001a0 c4 fe d2 bd c5 ca 28 3d 74 eb 4e bd 42 2b 20 3f
       -0.10302499 0.041209 -0.050517514 0.62566006
0001b0 30 a5 82 3d e0 5a 84 3e 81 0d 92 3e 29 4f 07 be
       0.06379163 0.25850582 0.28525928 -0.13213791
0001c0 b6 fa f8 bd 44 59 2e bd ef 2a c7 3e 9b 38 3a be
       -0.12157194 -0.0425656 0.38899943 -0.18185656
0001d0 9b e1 2f 3f 06 10 d0 3e 33 c0 e2 ba 5f e6 fa 3d
       0.6870362 0.40637225 -0.0017299711 0.12250971
0001e0 d7 5d 1f bd 5e 34 e1 3d 33 8d 22 3d 6f bf 95 3e
       -0.038907852 0.109963164 0.03968544 0.29247615
0001f0 26 6f 11 3f 46 0a 2b be e6 c9 12 3f 55 6b 7e 3e
       0.56810224 -0.16703138 0.5733932 0.24845631

sequential/conv2d_1/Conv2D/ReadVariableOp:0 f4 [10, 10, 3, 3]
000000 dd 07 58 3d 4a bf 90 bd 82 05 f0 bd ef 96 14 be
       0.052741874 -0.070677355 -0.117198005 -0.14510702
000010 33 2f 5d bc 05 91 cf bd f5 1a ac bd 85 57 2e bd
       -0.013500023 -0.10135082 -0.08403579 -0.042563934
000020 c8 d7 47 be 40 3d 26 be ee ed 3b 3f cf 08 3f 3f
       -0.19515908 -0.16234303 0.73409927 0.74622816
000030 dc 86 22 3e 12 28 f9 3e bc 35 4f 3e e0 38 9d 3e
       0.15871757 0.48663384 0.20235342 0.30707455
000040 fe 09 71 3e d0 5d 88 3c 6c 38 d7 be 16 04 e9 be
       0.23538968 0.016646296 -0.42035234 -0.4551093
000050 8d c7 c7 be df bd ab be 22 0d 43 be 20 6a ca be
       -0.39019433 -0.33543298 -0.19047979 -0.39534092
000060 bb 03 66 be 5b a2 86 bd ce 93 e8 be 56 88 01 3e
       -0.2246236 -0.065739356 -0.45425266 0.12649664
000070 f3 de c4 bd a2 b2 63 be 80 63 3e 3e 80 52 5f bc
       -0.09612837 -0.22236112 0.18592644 -0.013630509
000080 a7 18 aa 3d 31 56 9e 3d 3a 50 49 3d ad cd 08 3e
       0.08305483 0.077312835 0.049148776 0.13359709
000090 e4 16 e7 3f da 48 fa bd 4c 08 d4 3f 76 18 65 bd
       1.8053861 -0.122209266 1.6565032 -0.05593153
0000a0 7a 0f fe bc a1 73 d1 3d c8 d8 68 3e ea 98 97 3e
       -0.03101324 0.102271326 0.22738945 0.29608852
0000b0 b0 3c 26 3f f8 25 8c bc a8 a5 15 bf 74 64 93 3e
       0.6493635 -0.017107949 -0.58455896 0.28787577
0000c0 bc f3 d2 bd 4b d9 5c be 54 d0 9d 3e 82 f4 8f be
       -0.10300395 -0.21567266 0.30823004 -0.28116232
0000d0 b1 0c 8a bd ab e1 12 3e 89 89 3a be d8 23 4f 3e
       -0.06740702 0.14343898 -0.18216528 0.20228517
0000e0 7f f0 00 be 31 36 4e bd 24 35 4e 3e ca b6 17 bd
       -0.12591742 -0.05034465 0.20137459 -0.037039556
0000f0 a9 e6 2b 3d 73 92 74 3e 60 d2 2c 3c 9f e8 27 be
       0.04196802 0.23883991 0.010548204 -0.16397332
000100 5a ec a2 3d 91 69 fb bb c0 86 40 3d 89 c7 c0 bd
       0.07955237 -0.0076724966 0.047003508 -0.09413058
000110 86 08 37 be c1 b5 a0 bb 29 01 b4 bd 74 a1 14 bc
       -0.17874345 -0.0049044793 -0.08789284 -0.009071697
000120 3e ad ef be 10 a6 0e bf b6 89 3c bf ad 16 3c be
       -0.4681186 -0.5572214 -0.7364763 -0.18368025
000130 a5 a2 36 bf c6 65 e5 be 64 fd da be bc c9 35 bf
       -0.71341926 -0.4480421 -0.42771447 -0.7101095
000140 af 86 c4 be a8 80 cf be 9a a2 ea 3e da df 2b 3f
       -0.38384005 -0.40527844 0.4582718 0.67138445
000150 65 49 07 be c0 1f a8 3e 75 91 28 3e 6e ce 05 be
       -0.13211592 0.32836723 0.16461737 -0.13067028
000160 52 42 4b 3e 4d 1e 9e 3e 97 31 7c be 8a 68 e2 3c
       0.19849518 0.30882493 -0.24628292 0.027637739
000170 8d 2e dd 3c 3d 39 55 be da 06 fa 3c 35 cd 81 3e
       0.026999736 -0.20822616 0.030520845 0.25351873
000180 25 09 06 3d 8a d7 20 be 4b e1 13 3d f4 a0 39 3d
       0.032723565 -0.15707222 0.036103528 0.045319512
000190 94 26 16 3e df af 42 be 54 dd ea bc 23 84 90 3e
       0.14663154 -0.19012402 -0.02866999 0.28225812
0001a0 1f e1 62 3e c2 19 94 3b 4d bb 29 3d 1c d0 31 3e
       0.2215619 0.004519672 0.04143839 0.17364544
0001b0 ba f1 b0 3f 54 40 8c 3f 60 58 0c 3f 08 f3 b4 3f
       1.3823769 1.0957131 0.5482235 1.4136667
0001c0 b7 db f8 3d 3c 72 97 3f 8d ac c0 3f 3c 08 bb 3d
       0.12151282 1.1831737 1.5052658 0.0913243
0001d0 55 6f 2d 3f 1a 31 ec 3d 90 0d ba be 5c 6c c2 be
       0.67748004 0.11532803 -0.36338472 -0.37973297
0001e0 92 46 de 3c 80 cd e7 bd 72 70 65 be 1e 24 c2 bd
       0.02713326 -0.11318493 -0.22406176 -0.09479545
0001f0 76 fe 37 bd 7f 37 69 bd 43 6a e2 be a6 4c 82 bf
       -0.044920407 -0.05693769 -0.44221696 -1.0179641
000200 42 ee 66 be 36 f0 bf bd df e0 26 bf 4b 3b a0 be
       -0.22551826 -0.093719885 -0.65186876 -0.31295237
000210 6b 9b 19 3e f0 78 fe 3c ae 04 50 be 7a 38 21 3f
       0.15000694 0.031063527 -0.20314285 0.629768
000220 dd cb e7 3e 8a 85 76 be 68 0d 83 3e a8 6a 17 3f
       0.45272723 -0.24074379 0.25596166 0.5914712
000230 36 a5 27 3e 03 8b 63 3e c1 81 08 3e 7a 6c bb 3e
       0.16371617 0.22220998 0.13330747 0.366062
000240 cd ad c9 3e 6f 5c 08 3d ce 61 90 be 0d 8c 51 3e
       0.39390412 0.033291277 -0.2819962 0.20463581
000250 97 10 a0 3e e5 31 57 bd d9 05 1f be 48 6c f4 3d
       0.31262657 -0.052537818 -0.15529574 0.119347155
000260 fd 16 2f 3e e2 e0 ab bb e1 20 df 3d e8 1c 61 bd
       0.17098613 -0.005245314 0.10894943 -0.054959208
000270 64 c1 6a 3d bb 4a d9 3d f4 3e 11 3c 61 a4 e0 bd
       0.057313338 0.10609957 0.008865107 -0.10968853
000280 a6 32 2c be 38 d6 04 3e b5 6f 87 be be 21 83 bf
       -0.16816196 0.12972343 -0.26452413 -1.0244672
000290 ad 8b d4 be b1 ae 9b 3d 1b 12 86 be 7c 3f cd be
       -0.41512814 0.07601679 -0.26185688 -0.40087497
0002a0 a2 72 b6 bd 6a 33 80 3e bd 90 45 3d a5 be 2b be
       -0.08908583 0.25039226 0.048233736 -0.16771944
0002b0 a9 cb b8 bd 78 21 9d be cf 93 48 be 15 e9 b5 bd
       -0.0902322 -0.30689597 -0.19587635 -0.088823475
0002c0 8f e0 2c be 57 de 40 be 4c 6d 07 be 63 df 0f be
       -0.16882537 -0.18834816 -0.13225287 -0.14050059
0002d0 44 1c e2 be f4 03 be bf 67 84 e2 bf 60 3b 33 3f
       -0.4416219 -1.4844956 -1.7696656 0.70012474
0002e0 d8 5a 10 bf a5 39 98 be 26 1f 87 3f 89 23 53 3f
       -0.56388617 -0.2973148 1.0556381 0.824761
0002f0 6c 0a a1 3f 58 57 4f bf 14 b6 46 bf 31 75 78 be
       1.2581306 -0.8099265 -0.7762158 -0.24263455
000300 9d 14 45 bd 4f 6d 9a 3e ff 1e dc ba 48 6e a3 3e
       -0.04811536 0.3016152 -0.0016793906 0.31920075
000310 5e 80 25 3e 8f 98 86 3e 6a 7b a7 bf e0 83 a4 bf
       0.1616225 0.26288268 -1.3084538 -1.2852745
000320 1e cf c3 bd 4f 44 c8 bf 00 b3 05 c0 e4 17 9e bf
       -0.09560989 -1.5645846 -2.0890503 -1.2351041
000330 01 3f 37 bf c4 1d 9b bf e0 60 0b bf 42 f3 27 3f
       -0.7158051 -1.2118459 -0.54444695 0.65605557
000340 aa 17 d5 3e 3e 21 97 3f 4f f9 fd bd eb d6 6f be
       0.41619617 1.180702 -0.124010675 -0.23421828
000350 1b 8a db bc 33 a0 fd be c3 57 22 bf 6f ec 0a bf
       -0.026799252 -0.49536285 -0.63415164 -0.5426702
000360 4b 7c 8b 3c 7d 77 9b 3e 7a 08 c2 be 2f f2 0c 3e
       0.017027041 0.303646 -0.37897092 0.1376426
000370 d1 59 c8 3e 09 94 b2 3e 8e 25 9e 3e 58 35 49 bd
       0.39131024 0.34878567 0.30888027 -0.04912314
000380 4b 2a 93 bd ca b8 0a bf 8d ab a1 bf 88 4e 90 bf
       -0.07185801 -0.54188216 -1.2630478 -1.1273966
000390 48 41 41 bf 83 97 fc bf 37 10 32 c0 aa c8 9b bc
       -0.75490236 -1.9733738 -2.7822397 -0.019016583
0003a0 32 fd 86 bf b2 a5 a0 bf e1 53 09 3f 8c 60 f7 3e
       -1.0546019 -1.2550566 0.53643614 0.48315847
0003b0 0a 0e 3a 3f 4f eb b7 bd 3a c5 7c 3c 4f 67 10 bd
       0.7267767 -0.089804284 0.015427882 -0.035254773
0003c0 7d 5f d3 be 9a 66 fb be 6f 1b 02 bf e5 42 0e bd
       -0.4128379 -0.49101716 -0.5082311 -0.034731764
0003d0 06 eb 20 bd 2c 39 95 bd 60 4a dc bd c4 32 9a 3d
       -0.039286636 -0.07286295 -0.107563734 0.07529214
0003e0 04 0b 26 3e 3f b9 2c be e9 be 38 bd a7 94 82 bd
       0.1621514 -0.16867541 -0.04510394 -0.063760094
0003f0 87 63 b8 be fc 93 b6 3d 04 a4 54 3d 15 ae cc 3c
       -0.36013433 0.089149445 0.05191423 0.024985353

sequential/conv2d_1/BiasAdd/ReadVariableOp:0 f4 [10]
000000 fa e8 72 be 6c 1d 9f bd 87 2e cd bc 7b de bd 3c
       -0.23721686 -0.07769284 -0.0250466 0.023177376
000010 29 d0 ad be d5 ba 97 bd 9c 1d 2f bd 68 a8 8e bc
       -0.33947876 -0.07408682 -0.042752847 -0.017414287
000020 69 84 d1 3e 47 8b 9d bc
       0.40921333 -0.019231452

sequential/conv2d/Conv2D/ReadVariableOp:0 f4 [10, 1, 3, 3]
000000 f6 c9 4d be 73 dd 57 be a9 86 65 be b7 73 e4 bd
       -0.20096573 -0.2108057 -0.2241465 -0.11154883
000010 53 5e 40 3e a3 41 15 be 3c b3 53 3c bb 4d 79 bd
       0.18785982 -0.1457582 0.012921151 -0.060865145
000020 5b 08 87 3b bb 72 86 3e 19 e9 53 be e6 56 9c be
       0.004120869 0.26259407 -0.20694388 -0.30535048
000030 ff 60 98 3e 20 ad 24 3d b1 b5 d6 be c5 23 dc 3e
       0.29761502 0.040204167 -0.41935495 0.4299604
000040 3c 99 d4 bd 83 09 2d be 19 60 11 be 10 26 01 bf
       -0.1038079 -0.1689816 -0.14196815 -0.50448704
000050 01 36 d3 bd a1 9d cd 3e 6c 0e 53 3d 23 cd f6 be
       -0.10313035 0.40159324 0.051527426 -0.48203382
000060 06 0a e2 3d 84 b0 d0 3e 65 90 8d 3e 4e 14 af be
       0.11037068 0.4075967 0.27649227 -0.3419518
000070 ea 6e a5 bd 1e 45 52 bd fe 29 87 bd 22 0a 35 3e
       -0.08077796 -0.051335447 -0.06599806 0.17679647
000080 92 dd 91 3e c5 64 67 3e d7 01 8f 3e aa f6 8f 3e
       0.28489357 0.22597034 0.2793109 0.28117877
000090 fc 2c 0f be 75 17 88 be 9a bc 79 3e 5e aa d4 be
       -0.13982004 -0.26580396 0.24388352 -0.4153623
0000a0 ba 39 91 bc e1 6a be 3e 65 25 93 be 45 a2 7c 3e
       -0.017727721 0.37190917 -0.28739467 0.24671276
0000b0 8d 96 65 3e f0 c1 33 be 54 75 9e be f0 78 b3 be
       0.22420712 -0.1755445 -0.3094889 -0.35053205
0000c0 5b 84 8d be 8f 05 34 be b1 e8 48 3e 46 f0 99 3e
       -0.27640042 -0.17580245 0.19620015 0.30066127
0000d0 a2 de d9 3e 70 db 8e 3e b0 60 d1 3d 34 b1 12 bd
       0.42552668 0.27901793 0.1022352 -0.035813525
0000e0 82 9a bf be 32 53 9a 3e 74 89 7b 3e ae 12 68 3d
       -0.37422568 0.30141598 0.24564153 0.05665844
0000f0 a0 99 67 3e 2e e7 3d 3e e4 bd 63 bd 64 01 e0 bd
       0.22617197 0.1854522 -0.055601016 -0.10937765
000100 f5 d6 95 3d fc 9e b4 bd 3a da 83 bc 71 e1 c6 3d
       0.073163904 -0.08819386 -0.01609527 0.09710968
000110 26 a4 8c be c4 7a 4d be fa af 2d be 61 e9 04 be
       -0.27468985 -0.20066363 -0.16961661 -0.12979652
000120 7b 3e 74 bd 66 30 94 3e dd 34 6d be a7 8a 8f be
       -0.0596299 0.28943175 -0.23164697 -0.2803547
000130 0b 4e ea 3e bb 10 4a be 54 fd 6f be 3c c6 89 3e
       0.45762667 -0.19732945 -0.23436481 0.26909053
000140 d0 bd 32 bd 33 11 a3 bd 6f a5 d0 3e 2a 14 e0 bd
       -0.04363805 -0.07962265 0.40751216 -0.10941346
000150 1d 6f 18 3d 5b 11 f6 3e 46 98 c2 be 33 fc 20 3e
       0.03721534 0.48060116 -0.380068 0.15721206
000160 bc 4f 3b 3d 42 76 0b bf
       0.045730338 -0.5447732

sequential/conv2d/BiasAdd/ReadVariableOp:0 f4 [10]
000000 8d ed ca 3e 24 d8 87 3d 0b a3 1c bd 05 e6 d5 be
       0.39634362 0.066330224 -0.038241427 -0.41777053
000010 a8 d4 7a 3c c9 33 02 3d d8 50 c9 be 6c af d1 bc
       0.01530949 0.031787667 -0.3931949 -0.025596343
000020 ef 1e 00 3c 60 50 ce bc
       0.007819875 -0.02518481
